…
  Loaded 2300 images...
  Loaded 2400 images...
  Loaded 2500 images...
  Loaded 2600 images...
  Loaded samples: 2688
  Classes: 28
  Image tensor shape: (1, 64, 72)
  Image size mode: original resolution
  Max images per person: 96
  Load time: 1.0s

[2] Creating stratified train/validation/test split...
  Train samples: 1876
  Validation samples: 280
  Test samples: 532
  First train path: Train Set (Labeled)/p18_i170.pgm

[3] Using device: cpu
  Train normalization mean/std: 0.2094 / 0.2485

[4] Building model...
BetterFaceCNN(
  (features): Sequential(
    (0): ConvBlock(
      (block): Sequential(
        (0): Conv2d(1, 32, kernel_size=(3, 3), stride=(1, 1), padding=(1, 1))
        (1): BatchNorm2d(32, eps=1e-05, momentum=0.1, affine=True, track_running_stats=True)
        (2): ReLU(inplace=True)
        (3): Conv2d(32, 32, kernel_size=(3, 3), stride=(1, 1), padding=(1, 1))
        (4): BatchNorm2d(32, eps=1e-05, momentum=0.1, affine=True, track_running_stats=True)
        (5): ReLU(inplace=True)
        (6): MaxPool2d(kernel_size=2, stride=2, padding=0, dilation=1, ceil_mode=False)
        (7): Dropout2d(p=0.05, inplace=False)
      )
    )
    (1): ConvBlock(
      (block): Sequential(
        (0): Conv2d(32, 64, kernel_size=(3, 3), stride=(1, 1), padding=(1, 1))
        (1): BatchNorm2d(64, eps=1e-05, momentum=0.1, affine=True, track_running_stats=True)
        (2): ReLU(inplace=True)
        (3): Conv2d(64, 64, kernel_size=(3, 3), stride=(1, 1), padding=(1, 1))
        (4): BatchNorm2d(64, eps=1e-05, momentum=0.1, affine=True, track_running_stats=True)
        (5): ReLU(inplace=True)
        (6): MaxPool2d(kernel_size=2, stride=2, padding=0, dilation=1, ceil_mode=False)
        (7): Dropout2d(p=0.08, inplace=False)
      )
    )
    (2): ConvBlock(
      (block): Sequential(
        (0): Conv2d(64, 128, kernel_size=(3, 3), stride=(1, 1), padding=(1, 1))
        (1): BatchNorm2d(128, eps=1e-05, momentum=0.1, affine=True, track_running_stats=True)
        (2): ReLU(inplace=True)
        (3): Conv2d(128, 128, kernel_size=(3, 3), stride=(1, 1), padding=(1, 1))
        (4): BatchNorm2d(128, eps=1e-05, momentum=0.1, affine=True, track_running_stats=True)
        (5): ReLU(inplace=True)
        (6): MaxPool2d(kernel_size=2, stride=2, padding=0, dilation=1, ceil_mode=False)
        (7): Dropout2d(p=0.12, inplace=False)
      )
    )
  )
  (classifier): Sequential(
    (0): AdaptiveAvgPool2d(output_size=(4, 4))
    (1): Flatten(start_dim=1, end_dim=-1)
    (2): Linear(in_features=2048, out_features=256, bias=True)
    (3): BatchNorm1d(256, eps=1e-05, momentum=0.1, affine=True, track_running_stats=True)
    (4): ReLU(inplace=True)
    (5): Dropout(p=0.35, inplace=False)
    (6): Linear(in_features=256, out_features=28, bias=True)
  )
)

[5] Training...
  Epoch 01/20 | lr=0.000300 | train_loss=3.1864 | train_acc=0.106 | val_loss=3.2134 | val_acc=0.107
  Epoch 02/20 | lr=0.000300 | train_loss=2.7390 | train_acc=0.245 | val_loss=2.5252 | val_acc=0.371
  Epoch 03/20 | lr=0.000300 | train_loss=2.4441 | train_acc=0.345 | val_loss=2.1739 | val_acc=0.439
  Epoch 04/20 | lr=0.000300 | train_loss=2.1990 | train_acc=0.435 | val_loss=1.9550 | val_acc=0.507
…
