…
  Loaded 3200 images...
  Loaded 3300 images...
  Loaded 3400 images...
  Loaded 3500 images...
  Loaded samples: 3584
  Classes: 28
  Image tensor shape: (1, 64, 72)
  Image size mode: original resolution
  Max images per person: 128
  Load time: 0.9s

[2] Creating stratified train/validation/test split...
  Train samples: 2492
  Validation samples: 364
  Test samples: 728
  First train path: Train Set (Labeled)/p9_i444.pgm

[3] Using device: cpu
  Train normalization mean/std: 0.2118 / 0.2499

[4] Building model...
BetterFaceCNN(
  (features): Sequential(
    (0): ConvBlock(
      (block): Sequential(
        (0): Conv2d(1, 32, kernel_size=(3, 3), stride=(1, 1), padding=(1, 1))
        (1): BatchNorm2d(32, eps=1e-05, momentum=0.1, affine=True, track_running_stats=True)
        (2): ReLU(inplace=True)
        (3): Conv2d(32, 32, kernel_size=(3, 3), stride=(1, 1), padding=(1, 1))
        (4): BatchNorm2d(32, eps=1e-05, momentum=0.1, affine=True, track_running_stats=True)
        (5): ReLU(inplace=True)
        (6): MaxPool2d(kernel_size=2, stride=2, padding=0, dilation=1, ceil_mode=False)
        (7): Dropout2d(p=0.05, inplace=False)
      )
    )
    (1): ConvBlock(
      (block): Sequential(
        (0): Conv2d(32, 64, kernel_size=(3, 3), stride=(1, 1), padding=(1, 1))
        (1): BatchNorm2d(64, eps=1e-05, momentum=0.1, affine=True, track_running_stats=True)
        (2): ReLU(inplace=True)
        (3): Conv2d(64, 64, kernel_size=(3, 3), stride=(1, 1), padding=(1, 1))
        (4): BatchNorm2d(64, eps=1e-05, momentum=0.1, affine=True, track_running_stats=True)
        (5): ReLU(inplace=True)
        (6): MaxPool2d(kernel_size=2, stride=2, padding=0, dilation=1, ceil_mode=False)
        (7): Dropout2d(p=0.08, inplace=False)
      )
    )
    (2): ConvBlock(
      (block): Sequential(
        (0): Conv2d(64, 128, kernel_size=(3, 3), stride=(1, 1), padding=(1, 1))
        (1): BatchNorm2d(128, eps=1e-05, momentum=0.1, affine=True, track_running_stats=True)
        (2): ReLU(inplace=True)
        (3): Conv2d(128, 128, kernel_size=(3, 3), stride=(1, 1), padding=(1, 1))
        (4): BatchNorm2d(128, eps=1e-05, momentum=0.1, affine=True, track_running_stats=True)
        (5): ReLU(inplace=True)
        (6): MaxPool2d(kernel_size=2, stride=2, padding=0, dilation=1, ceil_mode=False)
        (7): Dropout2d(p=0.12, inplace=False)
      )
    )
  )
  (classifier): Sequential(
    (0): AdaptiveAvgPool2d(output_size=(4, 4))
    (1): Flatten(start_dim=1, end_dim=-1)
    (2): Linear(in_features=2048, out_features=256, bias=True)
    (3): BatchNorm1d(256, eps=1e-05, momentum=0.1, affine=True, track_running_stats=True)
    (4): ReLU(inplace=True)
    (5): Dropout(p=0.35, inplace=False)
    (6): Linear(in_features=256, out_features=28, bias=True)
  )
)

[5] Training...
  Epoch 01/12 | lr=0.000300 | train_loss=3.1097 | train_acc=0.126 | val_loss=2.8907 | val_acc=0.223
  Epoch 02/12 | lr=0.000300 | train_loss=2.6328 | train_acc=0.286 | val_loss=2.4510 | val_acc=0.363
  Epoch 03/12 | lr=0.000300 | train_loss=2.2618 | train_acc=0.420 | val_loss=2.0456 | val_acc=0.547
  Epoch 04/12 | lr=0.000300 | train_loss=1.9991 | train_acc=0.502 | val_loss=1.7738 | val_acc=0.613
…
